…
Namespace(B=64, C=2, H=128, K=100, L=20, N=256, R=6, batch_size=8, continue_from='', cv_maxlen=8, distributed=False, epochs=100, keep_batchnorm_fp32=None, local_rank=0, log_name='Dprnn_08-08-2020(17:40:47)', lr=0.001, max_norm=5, num_workers=4, opt_level='O0', patch_torch_functions=None, sample_rate=8000, segment=4, test_dir='/data07/zexu/workspace/speech_separation/data/tt', train_dir='/data07/zexu/workspace/speech_separation/data/tr', use_tensorboard=1, valid_dir='/data07/zexu/workspace/speech_separation/data/cv', world_size=1)

Total number of parameters: 463105 

dpaNet(
  (encoder): Encoder(
    (conv1d_U): Conv1d(1, 256, kernel_size=(20,), stride=(10,), bias=False)
  )
  (separator): dpa(
    (layer_norm): GroupNorm(1, 256, eps=1e-08, affine=True)
    (bottleneck_conv1x1): Conv1d(256, 64, kernel_size=(1,), stride=(1,), bias=False)
    (dual_dpa): ModuleList(
      (0): Dual_DPA_Block(
        (intra_a): cmEncoderLayer(
          (multihead_ca): multihead_ca(
            (a_linears): ModuleList(
              (0): Linear(in_features=64, out_features=64, bias=True)
              (1): Linear(in_features=64, out_features=64, bias=True)
              (2): Linear(in_features=64, out_features=64, bias=True)
              (3): Linear(in_features=64, out_features=64, bias=True)
            )
            (a_att_dropout): Dropout(p=0.1, inplace=False)
          )
          (a_linear1): Linear(in_features=64, out_features=128, bias=True)
          (a_dropout): Dropout(p=0.1, inplace=False)
          (a_linear2): Linear(in_features=128, out_features=64, bias=True)
          (a_norm1): LayerNorm((64,), eps=1e-05, elementwise_affine=True)
          (a_norm2): LayerNorm((64,), eps=1e-05, elementwise_affine=True)
          (a_dropout1): Dropout(p=0.1, inplace=False)
          (a_dropout2): Dropout(p=0.1, inplace=False)
        )
        (inter_a): cmEncoderLayer(
          (multihead_ca): multihead_ca(
            (a_linears): ModuleList(
              (0): Linear(in_features=64, out_features=64, bias=True)
              (1): Linear(in_features=64, out_features=64, bias=True)
              (2): Linear(in_features=64, out_features=64, bias=True)
              (3): Linear(in_features=64, out_features=64, bias=True)
            )
            (a_att_dropout): Dropout(p=0.1, inplace=False)
          )
          (a_linear1): Linear(in_features=64, out_features=128, bias=True)
          (a_dropout): Dropout(p=0.1, inplace=False)
          (a_linear2): Linear(in_features=128, out_features=64, bias=True)
          (a_norm1): LayerNorm((64,), eps=1e-05, elementwise_affine=True)
          (a_norm2): LayerNorm((64,), eps=1e-05, elementwise_affine=True)
          (a_dropout1): Dropout(p=0.1, inplace=False)
          (a_dropout2): Dropout(p=0.1, inplace=False)
        )
        (intra_norm): GroupNorm(1, 64, eps=1e-08, affine=True)
        (inter_norm): GroupNorm(1, 64, eps=1e-08, affine=True)
      )
      (1): Dual_DPA_Block(
        (intra_a): cmEncoderLayer(
          (multihead_ca): multihead_ca(
            (a_linears): ModuleList(
              (0): Linear(in_features=64, out_features=64, bias=True)
              (1): Linear(in_features=64, out_features=64, bias=True)
              (2): Linear(in_features=64, out_features=64, bias=True)
              (3): Linear(in_features=64, out_features=64, bias=True)
            )
            (a_att_dropout): Dropout(p=0.1, inplace=False)
          )
          (a_linear1): Linear(in_features=64, out_features=128, bias=True)
          (a_dropout): Dropout(p=0.1, inplace=False)
          (a_linear2): Linear(in_features=128, out_features=64, bias=True)
          (a_norm1): LayerNorm((64,), eps=1e-05, elementwise_affine=True)
          (a_norm2): LayerNorm((64,), eps=1e-05, elementwise_affine=True)
          (a_dropout1): Dropout(p=0.1, inplace=False)
          (a_dropout2): Dropout(p=0.1, inplace=False)
        )
        (inter_a): cmEncoderLayer(
          (multihead_ca): multihead_ca(
            (a_linears): ModuleList(
              (0): Linear(in_features=64, out_features=64, bias=True)
              (1): Linear(in_features=64, out_features=64, bias=True)
              (2): Linear(in_features=64, out_features=64, bias=True)
              (3): Linear(in_features=64, out_features=64, bias=True)
            )
            (a_att_dropout): Dropout(p=0.1, inplace=False)
          )
          (a_linear1): Linear(in_features=64, out_features=128, bias=True)
          (a_dropout): Dropout(p=0.1, inplace=False)
          (a_linear2): Linear(in_features=128, out_features=64, bias=True)
          (a_norm1): LayerNorm((64,), eps=1e-05, elementwise_affine=True)
          (a_norm2): LayerNorm((64,), eps=1e-05, elementwise_affine=True)
          (a_dropout1): Dropout(p=0.1, inplace=False)
          (a_dropout2): Dropout(p=0.1, inplace=False)
        )
        (intra_norm): GroupNorm(1, 64, eps=1e-08, affine=True)
        (inter_norm): GroupNorm(1, 64, eps=1e-08, affine=True)
      )
      (2): Dual_DPA_Block(
        (intra_a): cmEncoderLayer(
          (multihead_ca): multihead_ca(
            (a_linears): ModuleList(
              (0): Linear(in_features=64, out_features=64, bias=True)
              (1): Linear(in_features=64, out_features=64, bias=True)
              (2): Linear(in_features=64, out_features=64, bias=True)
              (3): Linear(in_features=64, out_features=64, bias=True)
            )
            (a_att_dropout): Dropout(p=0.1, inplace=False)
          )
          (a_linear1): Linear(in_features=64, out_features=128, bias=True)
          (a_dropout): Dropout(p=0.1, inplace=False)
          (a_linear2): Linear(in_features=128, out_features=64, bias=True)
          (a_norm1): LayerNorm((64,), eps=1e-05, elementwise_affine=True)
          (a_norm2): LayerNorm((64,), eps=1e-05, elementwise_affine=True)
          (a_dropout1): Dropout(p=0.1, inplace=False)
          (a_dropout2): Dropout(p=0.1, inplace=False)
        )
        (inter_a): cmEncoderLayer(
          (multihead_ca): multihead_ca(
            (a_linears): ModuleList(
              (0): Linear(in_features=64, out_features=64, bias=True)
              (1): Linear(in_features=64, out_features=64, bias=True)
              (2): Linear(in_features=64, out_features=64, bias=True)
              (3): Linear(in_features=64, out_features=64, bias=True)
            )
            (a_att_dropout): Dropout(p=0.1, inplace=False)
          )
          (a_linear1): Linear(in_features=64, out_features=128, bias=True)
          (a_dropout): Dropout(p=0.1, inplace=False)
          (a_linear2): Linear(in_features=128, out_features=64, bias=True)
          (a_norm1): LayerNorm((64,), eps=1e-05, elementwise_affine=True)
          (a_norm2): LayerNorm((64,), eps=1e-05, elementwise_affine=True)
          (a_dropout1): Dropout(p=0.1, inplace=False)
          (a_dropout2): Dropout(p=0.1, inplace=False)
        )
        (intra_norm): GroupNorm(1, 64, eps=1e-08, affine=True)
        (inter_norm): GroupNorm(1, 64, eps=1e-08, affine=True)
      )
      (3): Dual_DPA_Block(
        (intra_a): cmEncoderLayer(
          (multihead_ca): multihead_ca(
            (a_linears): ModuleList(
              (0): Linear(in_features=64, out_features=64, bias=True)
              (1): Linear(in_features=64, out_features=64, bias=True)
              (2): Linear(in_features=64, out_features=64, bias=True)
              (3): Linear(in_features=64, out_features=64, bias=True)
            )
            (a_att_dropout): Dropout(p=0.1, inplace=False)
          )
          (a_linear1): Linear(in_features=64, out_features=128, bias=True)
          (a_dropout): Dropout(p=0.1, inplace=False)
          (a_linear2): Linear(in_features=128, out_features=64, bias=True)
          (a_norm1): LayerNorm((64,), eps=1e-05, elementwise_affine=True)
          (a_norm2): LayerNorm((64,), eps=1e-05, elementwise_affine=True)
          (a_dropout1): Dropout(p=0.1, inplace=False)
          (a_dropout2): Dropout(p=0.1, inplace=False)
        )
        (inter_a): cmEncoderLayer(
          (multihead_ca): multihead_ca(
            (a_linears): ModuleList(
              (0): Linear(in_features=64, out_features=64, bias=True)
              (1): Linear(in_features=64, out_features=64, bias=True)
              (2): Linear(in_features=64, out_features=64, bias=True)
              (3): Linear(in_features=64, out_features=64, bias=True)
            )
            (a_att_dropout): Dropout(p=0.1, inplace=False)
          )
          (a_linear1): Linear(in_features=64, out_features=128, bias=True)
          (a_dropout): Dropout(p=0.1, inplace=False)
          (a_linear2): Linear(in_features=128, out_features=64, bias=True)
          (a_norm1): LayerNorm((64,), eps=1e-05, elementwise_affine=True)
          (a_norm2): LayerNorm((64,), eps=1e-05, elementwise_affine=True)
          (a_dropout1): Dropout(p=0.1, inplace=False)
          (a_dropout2): Dropout(p=0.1, inplace=False)
        )
        (intra_norm): GroupNorm(1, 64, eps=1e-08, affine=True)
        (inter_norm): GroupNorm(1, 64, eps=1e-08, affine=True)
      )
      (4): Dual_DPA_Block(
        (intra_a): cmEncoderLayer(
          (multihead_ca): multihead_ca(
            (a_linears): ModuleList(
              (0): Linear(in_features=64, out_features=64, bias=True)
              (1): Linear(in_features=64, out_features=64, bias=True)
              (2): Linear(in_features=64, out_features=64, bias=True)
              (3): Linear(in_features=64, out_features=64, bias=True)
            )
            (a_att_dropout): Dropout(p=0.1, inplace=False)
          )
          (a_linear1): Linear(in_features=64, out_features=128, bias=True)
          (a_dropout): Dropout(p=0.1, inplace=False)
          (a_linear2): Linear(in_features=128, out_features=64, bias=True)
          (a_norm1): LayerNorm((64,), eps=1e-05, elementwise_affine=True)
          (a_norm2): LayerNorm((64,), eps=1e-05, elementwise_affine=True)
          (a_dropout1): Dropout(p=0.1, inplace=False)
          (a_dropout2): Dropout(p=0.1, inplace=False)
        )
        (inter_a): cmEncoderLayer(
          (multihead_ca): multihead_ca(
            (a_linears): ModuleList(
              (0): Linear(in_features=64, out_features=64, bias=True)
              (1): Linear(in_features=64, out_features=64, bias=True)
              (2): Linear(in_features=64, out_features=64, bias=True)
              (3): Linear(in_features=64, out_features=64, bias=True)
            )
            (a_att_dropout): Dropout(p=0.1, inplace=False)
          )
          (a_linear1): Linear(in_features=64, out_features=128, bias=True)
          (a_dropout): Dropout(p=0.1, inplace=False)
          (a_linear2): Linear(in_features=128, out_features=64, bias=True)
          (a_norm1): LayerNorm((64,), eps=1e-05, elementwise_affine=True)
          (a_norm2): LayerNorm((64,), eps=1e-05, elementwise_affine=True)
          (a_dropout1): Dropout(p=0.1, inplace=False)
          (a_dropout2): Dropout(p=0.1, inplace=False)
        )
        (intra_norm): GroupNorm(1, 64, eps=1e-08, affine=True)
        (inter_norm): GroupNorm(1, 64, eps=1e-08, affine=True)
      )
      (5): Dual_DPA_Block(
        (intra_a): cmEncoderLayer(
          (multihead_ca): multihead_ca(
            (a_linears): ModuleList(
              (0): Linear(in_features=64, out_features=64, bias=True)
              (1): Linear(in_features=64, out_features=64, bias=True)
              (2): Linear(in_features=64, out_features=64, bias=True)
              (3): Linear(in_features=64, out_features=64, bias=True)
            )
            (a_att_dropout): Dropout(p=0.1, inplace=False)
          )
          (a_linear1): Linear(in_features=64, out_features=128, bias=True)
          (a_dropout): Dropout(p=0.1, inplace=False)
          (a_linear2): Linear(in_features=128, out_features=64, bias=True)
          (a_norm1): LayerNorm((64,), eps=1e-05, elementwise_affine=True)
          (a_norm2): LayerNorm((64,), eps=1e-05, elementwise_affine=True)
          (a_dropout1): Dropout(p=0.1, inplace=False)
          (a_dropout2): Dropout(p=0.1, inplace=False)
        )
        (inter_a): cmEncoderLayer(
          (multihead_ca): multihead_ca(
            (a_linears): ModuleList(
              (0): Linear(in_features=64, out_features=64, bias=True)
              (1): Linear(in_features=64, out_features=64, bias=True)
              (2): Linear(in_features=64, out_features=64, bias=True)
              (3): Linear(in_features=64, out_features=64, bias=True)
            )
            (a_att_dropout): Dropout(p=0.1, inplace=False)
          )
          (a_linear1): Linear(in_features=64, out_features=128, bias=True)
          (a_dropout): Dropout(p=0.1, inplace=False)
          (a_linear2): Linear(in_features=128, out_features=64, bias=True)
          (a_norm1): LayerNorm((64,), eps=1e-05, elementwise_affine=True)
          (a_norm2): LayerNorm((64,), eps=1e-05, elementwise_affine=True)
          (a_dropout1): Dropout(p=0.1, inplace=False)
          (a_dropout2): Dropout(p=0.1, inplace=False)
        )
        (intra_norm): GroupNorm(1, 64, eps=1e-08, affine=True)
        (inter_norm): GroupNorm(1, 64, eps=1e-08, affine=True)
      )
    )
    (prelu): PReLU(num_parameters=1)
    (mask_conv1x1): Conv1d(64, 512, kernel_size=(1,), stride=(1,), bias=False)
  )
  (decoder): Decoder(
    (basis_signals): Linear(in_features=256, out_features=20, bias=False)
  )
)
Drop 2925 utts(0.26 h) which is short than 32000 samples
Selected optimization level O0:  Pure FP32 training.

Defaults for this optimization level are:
enabled                : True
opt_level              : O0
cast_model_type        : torch.float32
patch_torch_functions  : False
keep_batchnorm_fp32    : None
master_weights         : False
loss_scale             : 1.0
…
