…
Namespace(B=64, C=2, H=128, K=100, L=20, N=256, R=6, batch_size=8, continue_from='', cv_maxlen=8, distributed=True, epochs=100, keep_batchnorm_fp32=None, local_rank=0, log_name='Dpa_08-10-2020(15:29:11)', lr=0.001, max_norm=5, num_workers=4, opt_level='O0', patch_torch_functions=None, sample_rate=8000, segment=4, test_dir='/home/zexu/workspace/speech_separation/data/tt', train_dir='/home/zexu/workspace/speech_separation/data/tr', use_tensorboard=1, valid_dir='/home/zexu/workspace/speech_separation/data/cv', world_size=2)

Total number of parameters: 2843905 

dprnn(
  (encoder): Encoder(
    (conv1d_U): Conv1d(1, 256, kernel_size=(20,), stride=(10,), bias=False)
  )
  (separator): rnn(
    (layer_norm): GroupNorm(1, 256, eps=1e-08, affine=True)
    (bottleneck_conv1x1): Conv1d(256, 64, kernel_size=(1,), stride=(1,), bias=False)
    (dual_rnn): ModuleList(
      (0): Dual_RNN_Block(
        (intra_rnn): LSTM(64, 128, batch_first=True, bidirectional=True)
        (inter_rnn): LSTM(64, 128, batch_first=True, bidirectional=True)
        (intra_norm): GroupNorm(1, 64, eps=1e-08, affine=True)
        (inter_norm): GroupNorm(1, 64, eps=1e-08, affine=True)
        (intra_linear): Linear(in_features=256, out_features=64, bias=True)
        (inter_linear): Linear(in_features=256, out_features=64, bias=True)
        (intra_att): multihead_ca(
          (a_linears): ModuleList(
            (0): Linear(in_features=64, out_features=64, bias=True)
            (1): Linear(in_features=64, out_features=64, bias=True)
            (2): Linear(in_features=64, out_features=64, bias=True)
            (3): Linear(in_features=64, out_features=64, bias=True)
          )
          (a_att_dropout): Dropout(p=0, inplace=False)
        )
        (inter_att): multihead_ca(
          (a_linears): ModuleList(
            (0): Linear(in_features=64, out_features=64, bias=True)
            (1): Linear(in_features=64, out_features=64, bias=True)
            (2): Linear(in_features=64, out_features=64, bias=True)
            (3): Linear(in_features=64, out_features=64, bias=True)
          )
          (a_att_dropout): Dropout(p=0, inplace=False)
        )
        (intra_norm_att): LayerNorm((64,), eps=1e-05, elementwise_affine=True)
        (inter_norm_att): LayerNorm((64,), eps=1e-05, elementwise_affine=True)
      )
      (1): Dual_RNN_Block(
        (intra_rnn): LSTM(64, 128, batch_first=True, bidirectional=True)
        (inter_rnn): LSTM(64, 128, batch_first=True, bidirectional=True)
        (intra_norm): GroupNorm(1, 64, eps=1e-08, affine=True)
        (inter_norm): GroupNorm(1, 64, eps=1e-08, affine=True)
        (intra_linear): Linear(in_features=256, out_features=64, bias=True)
        (inter_linear): Linear(in_features=256, out_features=64, bias=True)
        (intra_att): multihead_ca(
          (a_linears): ModuleList(
            (0): Linear(in_features=64, out_features=64, bias=True)
            (1): Linear(in_features=64, out_features=64, bias=True)
            (2): Linear(in_features=64, out_features=64, bias=True)
            (3): Linear(in_features=64, out_features=64, bias=True)
          )
          (a_att_dropout): Dropout(p=0, inplace=False)
        )
        (inter_att): multihead_ca(
          (a_linears): ModuleList(
            (0): Linear(in_features=64, out_features=64, bias=True)
            (1): Linear(in_features=64, out_features=64, bias=True)
            (2): Linear(in_features=64, out_features=64, bias=True)
            (3): Linear(in_features=64, out_features=64, bias=True)
          )
          (a_att_dropout): Dropout(p=0, inplace=False)
        )
        (intra_norm_att): LayerNorm((64,), eps=1e-05, elementwise_affine=True)
        (inter_norm_att): LayerNorm((64,), eps=1e-05, elementwise_affine=True)
      )
      (2): Dual_RNN_Block(
        (intra_rnn): LSTM(64, 128, batch_first=True, bidirectional=True)
        (inter_rnn): LSTM(64, 128, batch_first=True, bidirectional=True)
        (intra_norm): GroupNorm(1, 64, eps=1e-08, affine=True)
        (inter_norm): GroupNorm(1, 64, eps=1e-08, affine=True)
        (intra_linear): Linear(in_features=256, out_features=64, bias=True)
        (inter_linear): Linear(in_features=256, out_features=64, bias=True)
        (intra_att): multihead_ca(
          (a_linears): ModuleList(
            (0): Linear(in_features=64, out_features=64, bias=True)
            (1): Linear(in_features=64, out_features=64, bias=True)
            (2): Linear(in_features=64, out_features=64, bias=True)
            (3): Linear(in_features=64, out_features=64, bias=True)
          )
          (a_att_dropout): Dropout(p=0, inplace=False)
        )
        (inter_att): multihead_ca(
          (a_linears): ModuleList(
            (0): Linear(in_features=64, out_features=64, bias=True)
            (1): Linear(in_features=64, out_features=64, bias=True)
            (2): Linear(in_features=64, out_features=64, bias=True)
            (3): Linear(in_features=64, out_features=64, bias=True)
          )
          (a_att_dropout): Dropout(p=0, inplace=False)
        )
        (intra_norm_att): LayerNorm((64,), eps=1e-05, elementwise_affine=True)
        (inter_norm_att): LayerNorm((64,), eps=1e-05, elementwise_affine=True)
      )
      (3): Dual_RNN_Block(
        (intra_rnn): LSTM(64, 128, batch_first=True, bidirectional=True)
        (inter_rnn): LSTM(64, 128, batch_first=True, bidirectional=True)
        (intra_norm): GroupNorm(1, 64, eps=1e-08, affine=True)
        (inter_norm): GroupNorm(1, 64, eps=1e-08, affine=True)
        (intra_linear): Linear(in_features=256, out_features=64, bias=True)
        (inter_linear): Linear(in_features=256, out_features=64, bias=True)
        (intra_att): multihead_ca(
          (a_linears): ModuleList(
            (0): Linear(in_features=64, out_features=64, bias=True)
            (1): Linear(in_features=64, out_features=64, bias=True)
            (2): Linear(in_features=64, out_features=64, bias=True)
            (3): Linear(in_features=64, out_features=64, bias=True)
          )
          (a_att_dropout): Dropout(p=0, inplace=False)
        )
        (inter_att): multihead_ca(
          (a_linears): ModuleList(
            (0): Linear(in_features=64, out_features=64, bias=True)
            (1): Linear(in_features=64, out_features=64, bias=True)
            (2): Linear(in_features=64, out_features=64, bias=True)
            (3): Linear(in_features=64, out_features=64, bias=True)
          )
          (a_att_dropout): Dropout(p=0, inplace=False)
        )
        (intra_norm_att): LayerNorm((64,), eps=1e-05, elementwise_affine=True)
        (inter_norm_att): LayerNorm((64,), eps=1e-05, elementwise_affine=True)
      )
      (4): Dual_RNN_Block(
        (intra_rnn): LSTM(64, 128, batch_first=True, bidirectional=True)
        (inter_rnn): LSTM(64, 128, batch_first=True, bidirectional=True)
        (intra_norm): GroupNorm(1, 64, eps=1e-08, affine=True)
        (inter_norm): GroupNorm(1, 64, eps=1e-08, affine=True)
        (intra_linear): Linear(in_features=256, out_features=64, bias=True)
        (inter_linear): Linear(in_features=256, out_features=64, bias=True)
        (intra_att): multihead_ca(
          (a_linears): ModuleList(
            (0): Linear(in_features=64, out_features=64, bias=True)
            (1): Linear(in_features=64, out_features=64, bias=True)
            (2): Linear(in_features=64, out_features=64, bias=True)
            (3): Linear(in_features=64, out_features=64, bias=True)
          )
          (a_att_dropout): Dropout(p=0, inplace=False)
        )
        (inter_att): multihead_ca(
          (a_linears): ModuleList(
            (0): Linear(in_features=64, out_features=64, bias=True)
            (1): Linear(in_features=64, out_features=64, bias=True)
            (2): Linear(in_features=64, out_features=64, bias=True)
            (3): Linear(in_features=64, out_features=64, bias=True)
          )
          (a_att_dropout): Dropout(p=0, inplace=False)
        )
        (intra_norm_att): LayerNorm((64,), eps=1e-05, elementwise_affine=True)
        (inter_norm_att): LayerNorm((64,), eps=1e-05, elementwise_affine=True)
      )
      (5): Dual_RNN_Block(
        (intra_rnn): LSTM(64, 128, batch_first=True, bidirectional=True)
        (inter_rnn): LSTM(64, 128, batch_first=True, bidirectional=True)
        (intra_norm): GroupNorm(1, 64, eps=1e-08, affine=True)
        (inter_norm): GroupNorm(1, 64, eps=1e-08, affine=True)
        (intra_linear): Linear(in_features=256, out_features=64, bias=True)
        (inter_linear): Linear(in_features=256, out_features=64, bias=True)
        (intra_att): multihead_ca(
          (a_linears): ModuleList(
            (0): Linear(in_features=64, out_features=64, bias=True)
            (1): Linear(in_features=64, out_features=64, bias=True)
            (2): Linear(in_features=64, out_features=64, bias=True)
            (3): Linear(in_features=64, out_features=64, bias=True)
          )
          (a_att_dropout): Dropout(p=0, inplace=False)
        )
        (inter_att): multihead_ca(
          (a_linears): ModuleList(
            (0): Linear(in_features=64, out_features=64, bias=True)
            (1): Linear(in_features=64, out_features=64, bias=True)
            (2): Linear(in_features=64, out_features=64, bias=True)
            (3): Linear(in_features=64, out_features=64, bias=True)
          )
          (a_att_dropout): Dropout(p=0, inplace=False)
        )
        (intra_norm_att): LayerNorm((64,), eps=1e-05, elementwise_affine=True)
        (inter_norm_att): LayerNorm((64,), eps=1e-05, elementwise_affine=True)
      )
    )
    (prelu): PReLU(num_parameters=1)
    (mask_conv1x1): Conv1d(64, 512, kernel_size=(1,), stride=(1,), bias=False)
  )
  (decoder): Decoder(
    (basis_signals): Linear(in_features=256, out_features=20, bias=False)
  )
)
Drop 2925 utts(0.26 h) which is short than 32000 samples
Drop 2925 utts(0.26 h) which is short than 32000 samples
Selected optimization level O0:  Pure FP32 training.

Defaults for this optimization level are:
enabled                : True
opt_level              : O0
cast_model_type        : torch.float32
patch_torch_functions  : False
keep_batchnorm_fp32    : None
…
