…
Namespace(B=64, C=2, H=128, K=256, L=2, N=256, R=6, batch_size=2, continue_from='', cv_maxlen=8, distributed=False, epochs=100, keep_batchnorm_fp32=None, local_rank=0, log_name='Dprnn_04-08-2020(17:56:19)', lr=0.001, max_norm=5, num_workers=4, opt_level='O1', patch_torch_functions=None, sample_rate=8000, segment=4, test_dir='/data07/zexu/workspace/speech_separation/data/tt', train_dir='/data07/zexu/workspace/speech_separation/data/tr', use_tensorboard=1, valid_dir='/data07/zexu/workspace/speech_separation/data/cv', world_size=1)

Total number of parameters: 2633473 

dprnn(
  (encoder): Encoder(
    (conv1d_U): Conv1d(1, 256, kernel_size=(2,), stride=(1,), bias=False)
  )
  (separator): rnn(
    (layer_norm): GroupNorm(1, 256, eps=1e-08, affine=True)
    (bottleneck_conv1x1): Conv1d(256, 64, kernel_size=(1,), stride=(1,), bias=False)
    (dual_rnn): ModuleList(
      (0): Dual_RNN_Block(
        (intra_rnn): LSTM(64, 128, batch_first=True, bidirectional=True)
        (inter_rnn): LSTM(64, 128, batch_first=True, bidirectional=True)
        (intra_norm): GroupNorm(1, 64, eps=1e-08, affine=True)
        (inter_norm): GroupNorm(1, 64, eps=1e-08, affine=True)
        (intra_linear): Linear(in_features=256, out_features=64, bias=True)
        (inter_linear): Linear(in_features=256, out_features=64, bias=True)
      )
      (1): Dual_RNN_Block(
        (intra_rnn): LSTM(64, 128, batch_first=True, bidirectional=True)
        (inter_rnn): LSTM(64, 128, batch_first=True, bidirectional=True)
        (intra_norm): GroupNorm(1, 64, eps=1e-08, affine=True)
        (inter_norm): GroupNorm(1, 64, eps=1e-08, affine=True)
        (intra_linear): Linear(in_features=256, out_features=64, bias=True)
        (inter_linear): Linear(in_features=256, out_features=64, bias=True)
      )
      (2): Dual_RNN_Block(
        (intra_rnn): LSTM(64, 128, batch_first=True, bidirectional=True)
        (inter_rnn): LSTM(64, 128, batch_first=True, bidirectional=True)
        (intra_norm): GroupNorm(1, 64, eps=1e-08, affine=True)
        (inter_norm): GroupNorm(1, 64, eps=1e-08, affine=True)
        (intra_linear): Linear(in_features=256, out_features=64, bias=True)
        (inter_linear): Linear(in_features=256, out_features=64, bias=True)
      )
      (3): Dual_RNN_Block(
        (intra_rnn): LSTM(64, 128, batch_first=True, bidirectional=True)
        (inter_rnn): LSTM(64, 128, batch_first=True, bidirectional=True)
        (intra_norm): GroupNorm(1, 64, eps=1e-08, affine=True)
        (inter_norm): GroupNorm(1, 64, eps=1e-08, affine=True)
        (intra_linear): Linear(in_features=256, out_features=64, bias=True)
        (inter_linear): Linear(in_features=256, out_features=64, bias=True)
      )
      (4): Dual_RNN_Block(
        (intra_rnn): LSTM(64, 128, batch_first=True, bidirectional=True)
        (inter_rnn): LSTM(64, 128, batch_first=True, bidirectional=True)
        (intra_norm): GroupNorm(1, 64, eps=1e-08, affine=True)
        (inter_norm): GroupNorm(1, 64, eps=1e-08, affine=True)
        (intra_linear): Linear(in_features=256, out_features=64, bias=True)
        (inter_linear): Linear(in_features=256, out_features=64, bias=True)
      )
      (5): Dual_RNN_Block(
        (intra_rnn): LSTM(64, 128, batch_first=True, bidirectional=True)
        (inter_rnn): LSTM(64, 128, batch_first=True, bidirectional=True)
        (intra_norm): GroupNorm(1, 64, eps=1e-08, affine=True)
        (inter_norm): GroupNorm(1, 64, eps=1e-08, affine=True)
        (intra_linear): Linear(in_features=256, out_features=64, bias=True)
        (inter_linear): Linear(in_features=256, out_features=64, bias=True)
      )
    )
    (prelu): PReLU(num_parameters=1)
    (mask_conv1x1): Conv1d(64, 512, kernel_size=(1,), stride=(1,), bias=False)
  )
  (decoder): Decoder(
    (basis_signals): Linear(in_features=256, out_features=2, bias=False)
  )
)
Drop 2925 utts(0.26 h) which is short than 32000 samples
Selected optimization level O1:  Insert automatic casts around Pytorch functions and Tensor methods.

Defaults for this optimization level are:
enabled                : True
opt_level              : O1
cast_model_type        : None
patch_torch_functions  : True
keep_batchnorm_fp32    : None
master_weights         : None
…
